rnn9.pt (torch, 113976 bytes, 4 tensors)

i2h.weight f4 [128, 215]
0.01624958 -0.031385534 -0.04979335 0.0502865 0.04080773 0.014964895 -0.05087632 0.06736845
-0.039069235 0.018648598 0.002557019 -0.023197519 -0.011661425 -0.036661908 0.05705418 0.06795489
0.0443372 -0.0409372 0.045228474 0.06205022 -0.027171148 0.06014076 -0.05452073 0.01172548
0.0024007198 0.015145358 -0.029185267 0.012333763 0.0336338 -0.06190005 -0.078836076 0.043159623
-0.06725167 0.03753882 -0.048157036 0.039594654 0.022532448 -0.08291222 -0.008965966 -0.06574214
-0.041808534 -0.05265887 -0.06063436 0.013429103 0.0062076915 -0.0127108665 0.043253515 -0.015020938
-0.08068252 -0.021247573 -0.0785087 -0.025649918 -0.006546711 0.01570919 -0.057890072 0.05038617
-0.065861404 0.059503067 0.05566976 0.03130225 -0.066329226 -0.048495777 -0.053365108 -0.030326221
-0.060400028 -0.009986991 -0.06875262 0.0064063966 0.05324606 0.043276925 0.0390375 0.029011754
-0.014137208 -0.022366386 0.013627554 0.06267187 0.060417388 0.071006246 -0.02093153 0.03350978
0.014861069 0.057606563 0.021294946 0.053958792 -0.046525385 -0.014189788 -0.05846741 0.058788076
0.0590692 0.06466348 0.0028067434 -0.034539632 -0.030058451 0.05874561 0.02315817 -0.031608686
0.099298194 0.08935999 -0.0118315825 -0.023728907 0.055055287 -0.016436767 0.006431415 0.042985816
0.029840004 -0.019747442 0.0015195241 0.07411216 -0.042520206 0.094341025 -0.020282984 -0.07452431
0.10973858 -0.0054068556 0.05690901 -0.05295998 0.026138354 0.094178066 -0.032463048 0.11291728
-0.015333053 -0.026074022 0.1151248 0.023253608 0.054763135 0.07180225 -0.01866307 0.052679785
-0.060875352 0.02935463 -0.07220531 0.07165955 -0.012253624 0.097129114 0.038477566 -0.042914845
-0.049551964 0.061317567 0.014047016 0.095091395 0.11218434 0.04808484 -0.027739087 -0.06009009
0.096902065 0.019656243 -0.06208896 0.061203264 -0.016817018 0.04265928 0.018810662 -0.018100092
-0.07421234 0.057013467 -0.045757566 -0.02307611 -0.010228117 -0.015043476 -0.030111726 0.040636446
-0.0004741769 -0.05097968 -0.013776515 0.031271834 -0.064003766 0.032332905 0.025346274 0.043593258
-0.017276026 -0.016607748 -0.04576429 0.050603606 0.00017086838 -2.486593e-05 0.03986256 0.07113417
-0.020254817 0.06559338 -0.013075572 0.04889547 0.05062207 -0.06730087 -0.053940654 0.08959341
-0.07094859 -0.06460183 0.113700435 0.059848223 0.011135553 0.056112844 0.06490996 -0.06306848
0.017311849 -0.047278922 0.073323645 0.046338316 0.04709407 0.03812399 0.073165506 0.06576311
0.027022121 -0.021896029 -0.029226314 0.014569998 -0.06869382 -0.008243683 0.00520604 0.08059925
0.031754646 0.064620174 0.020078266 0.015418921 0.0032334302 0.008445791 0.04987049 0.057798795
-0.012252679 0.019255443 -0.024731778 -0.052853316 0.009644741 0.066434346 -0.0071708905 0.04338621
0.0010386973 0.031131934 -0.061563928 -0.002848916 -0.00070283015 -0.05719295 0.0042585507 0.06862988
-0.04038909 -0.058993224 0.0069443537 -0.048037026 0.01645072 -0.012968457 -0.034335587 0.028661367
-0.03030391 -0.062600695 0.047907013 -0.059657715 -0.020957235 -0.006242619 0.03774069 0.05349251
0.013007143 -0.029457277 0.0033196774 -0.0069211856 -0.06800729 0.033583302 0.064352475 -0.030591296
00000000: d71d 853c 1e8e 00bd 1df4 4bbd 38f9 4d3d
00000010: 0226 273d 522f 753c b063 50bd 78f8 893d
00000020: 1007 20bd f2c4 983c a993 273b b908 bebc
00000030: 900f 3fbc cc2a 16bd a5b1 693d ef2b 8b3d
00000040: ec9a 353d c4ad 27bd 7e41 393d 5f28 7e3d
00000050: 0796 debc 2856 763d 2151 5fbd 3a1c 403c
00000060: 6555 1d3b 3c24 783c f115 efbc 8d13 4a3c
00000070: 98c3 093d e88a 7dbd cf74 a1bd 25c8 303d
00000080: 3ebb 89bd 4ec2 193d 5040 45bd 012e 223d
00000090: f895 b83c e2cd a9bd fde5 12bc d1a3 86bd
000000a0: 6d3f 2bbd d4b0 57bd bc5b 78bd be05 5c3c
000000b0: e469 cb3b 3d41 50bc 992a 313d 611a 76bc
000000c0: e13c a5bd 640f aebc 2bc9 a0bd c71f d2bc
000000d0: cb85 d6bb 8fb0 803c 241e 6dbd bb61 4e3d
000000e0: 58e2 86bd 7db9 733d f905 643d ca36 003d
000000f0: 9ed7 87bd 82a3 46bd 5f95 5abd b26e f8bc
00000100: 0566 77bd 7aa0 23bc 2cce 8cbd c0ec d13b
00000110: 8a18 5a3d 2543 313d c9e5 1f3d 0faa ed3c
00000120: c09f 67bc b639 b7bc 1b46 5f3c 1c5a 803d
00000130: 3978 773d b96b 913d 9a78 abbc 8d41 093d
00000140: d77b 733c dcf4 6b3d bd72 ae3c e503 5d3d
00000150: 6791 3ebd 497c 68bc 867b 6fbd c4cb 703d
00000160: 8cf2 713d 496e 843d 57f1 373b 6e79 0dbd
00000170: 243d f6bc 3d9f 703d 34b6 bd3c 1c78 01bd
00000180: da5c cb3d 5f02 b73d 41d9 41bc 2063 c2bc
00000190: a781 613d 66a6 86bc 9fbe d23b e511 303d
000001a0: 0673 f43c 63c5 a1bc c52a c73a 1ec8 973d
000001b0: ab29 2ebd de35 c13d 8028 a6bc 34a0 98bd
000001c0: 9fbe e03d fe2b b1bb 6c19 693d 90ec 58bd
000001d0: 1a20 d63c 6ee0 c03d f9f7 04bd 2d41 e73d
000001e0: 7c37 7bbc 3099 d5bc 8dc6 eb3d 5a7e be3c
000001f0: 4f4f 603d 0f0d 933d 4be3 98bc c2c6 573d
00000200: 6f58 79bd 1f79 f03c 61e0 93bd 3ec2 923d
00000210: 6dc3 48bc a1eb c63d a79a 1d3d 7ac7 2fbd
00000220: 00f7 4abd 2128 7b3d 7525 663c 47bf c23d
00000230: e7c0 e53d 9cf4 443d 153d e3bc 0721 76bd
00000240: 9774 c63d 2106 a13c fe50 7ebd 46b0 7a3d
00000250: d8c3 89bc 7fbb 2e3d d118 9a3c a546 94bc
00000260: a4fc 97bd f486 693d 496c 3bbd 1c0a bdbc
00000270: d593 27bc e978 76bc deac f6bc 6772 263d
00000280: f29a f8b9 12d0 50bd e4b6 61bc e516 003d
00000290: 6814 83bd 826f 043d fda2 cf3c d88e 323d
000002a0: 7486 8dbc f90c 88bc 5673 3bbd ba45 4f3d
000002b0: 222b 3339 2e97 d0b7 ec46 233d cbae 913d
000002c0: 6eed a5bc d255 863d ed3a 56bc 9e46 483d
000002d0: 1659 4f3d 0ad5 89bd e0f0 5cbd c07c b73d
000002e0: 7f4d 91bd f74d 84bd c6db e83d 6923 753d
000002f0: e571 363c 95d6 653d 83ef 843d 0c2a 81bd
00000300: 94d1 8d3c 8ba7 41bd b52a 963d 3fcd 3d3d
00000310: b6e5 403d e727 1c3d ccd7 953d cfae 863d
00000320: 7f5d dd3c 4d5f b3bc 066c efbc 00b7 6e3c
00000330: 58af 8cbd 8310 07bc 6e97 aa3b 3811 a53d
00000340: 2911 023d 9557 843d 2d7b a43c a49f 7c3c
00000350: f5e7 533b 3760 0a3c 0045 4c3d 6ebe 6c3d
00000360: 76bf 48bc 97bd 9d3c 4c9a cabc b87c 58bd
00000370: fa04 1e3c bb0e 883d caf9 eabb bdb5 313d
00000380: e624 883a 6608 ff3c 752a 7cbd e1b4 3abb
00000390: 223e 38ba 2843 6abd 508b 8b3b d38d 8c3d
000003a0: 086f 25bd e1a2 71bd 768d e33b 79c2 44bd
000003b0: a9c3 863c a779 54bc 79a3 0cbd 3ecb ea3c
000003c0: e83f f8bc cb34 80bd 253a 443d a65b 74bd
000003d0: 82ae abbc e28e ccbb fb95 1a3d f61a 5b3d
000003e0: e91b 553c 6350 f1bc f28e 593b 1dcb e2bb
000003f0: 6847 8bbd a58e 093d 3bcb 833d 999a fabc

i2h.bias f4 [128]
0.093575045 -0.019589746 0.112860546 0.04065501 -0.042457987 0.0054102885 0.055658966 0.022030761
0.09135324 -0.029043075 -0.0015493871 0.00039922146 -0.017856741 -0.016962666 0.13383035 0.00535899
0.072721496 -0.051097386 -0.05466531 0.17104083 0.16530304 -0.05849598 0.18843836 0.06108808
-0.07981896 0.0359711 -0.033722717 0.3269923 0.24653555 0.056842566 0.07927502 -0.0132195875
-0.12814298 -0.037899338 -0.037446525 -0.09004201 -0.069725186 -0.07296103 -0.13803676 -0.053478405
0.38135657 -0.042441703 0.13613702 -0.06632059 0.058118887 -0.06916512 0.25183383 -0.101937346
-0.055495877 -0.024503445 -0.11184736 0.18396573 -0.0021790152 0.20652135 0.012288083 0.11246069
-0.028771838 0.035543315 -0.06046137 0.08238277 0.3427613 0.16256663 0.1850281 0.19015794
-0.046513718 -0.09334106 -0.011472709 -0.017023364 -0.05431294 -0.1476914 0.0075404034 0.046168555
-0.03432038 0.021915033 0.056695256 -0.042101968 -0.050939597 -0.07485149 0.016036958 -0.057720575
-0.05329926 0.045797322 0.14701132 -0.10763564 0.15761752 0.14085841 -0.04705303 -0.071549416
-0.07981056 -0.058312263 0.13835725 -0.025830805 0.16371569 -0.026877485 0.07054254 0.014962516
0.24145453 -0.03302832 0.051325932 0.18540858 0.038011406 -0.0023572557 0.041887626 0.02574348
0.13266522 0.017834708 -0.058052983 0.12550235 -0.0076708132 0.002173106 0.24647476 0.19532138
-0.041115724 -0.06240789 -0.06278991 -0.0030269949 0.101818025 -0.104282014 -0.06401593 0.02003585
-0.13000934 0.31358775 0.00050335436 -0.018000694 0.13773099 0.21106315 -0.06279791 -0.0091449665
00000000: 46a4 bf3d ad7a a0bc 6e23 e73d de85 263d
00000010: 6de8 2dbd ca48 b13b a8fa 633d db79 b43c
00000020: 6817 bb3d beeb edbc ce14 cbba 994e d139
00000030: 4d48 92bc 4af5 8abc d30a 093e 779a af3b
00000040: 02ef 943d 7e4b 51bd bbe8 5fbd 5425 2f3e
00000050: 3345 293e 7b99 6fbd fcf5 403e 7f37 7a3d
00000060: 1f78 a3bd 6f56 133d d520 0abd 896b a73e
00000070: d173 7c3e c0d3 683d f15a a23d f896 58bc
00000080: ea37 03be 563c 1bbd 8761 19bd f267 b8bd
00000090: 14cc 8ebd 986c 95bd 8259 0dbe 2c0c 5bbd
000000a0: 2b41 c33e 5ad7 2dbd 8167 0b3e 17d3 87bd
000000b0: 120e 6e3d 71a6 8dbd 5df0 803e 87c4 d0bd
000000c0: a54f 63bd 73bb c8bc 3b10 e5bd 8361 3c3e
000000d0: cfcd 0ebb 557a 533e f553 493c ca51 e63d
000000e0: ebb2 ebbc de95 113d 57a6 77bd 4cb8 a83d
000000f0: 697e af3e de77 263e 0278 3d3e c3b8 423e
00000100: 2b85 3ebd 9929 bfbd 07f8 3bbc 9574 8bbc
00000110: 3f77 5ebd 6a3c 17be 7d15 f73b 3d1b 3d3d
00000120: 8793 0cbd 2887 b33c 4939 683d 1d73 2cbd
00000130: 0aa6 50bd bd4b 99bd f05f 833c 696c 6cbd
00000140: 5350 5abd f995 3b3d 238a 163e 1370 dcbd
00000150: 7d66 213e 303d 103e aeba 40bd 8088 92bd
00000160: b873 a3bd d7d8 6ebd 86ad 0d3e 209b d3bc
00000170: 16a5 273e 2c2e dcbc 9b78 903d 5725 753c
00000180: db3f 773e b448 07bd 243b 523d bfdb 3d3e
00000190: d9b1 1b3d 307c 1abb 5c92 2b3d fee3 d23c
000001a0: 64d9 073e 181a 923c f7c8 6dbd b083 003e
000001b0: 725b fbbb ab6a 0e3b e163 7c3e 5402 483e
000001c0: f668 28bd 6a9f 7fbd ff97 80bd 8c60 46bb
000001d0: f885 d03d cf91 d5bd c91a 83bd 3922 a43c
000001e0: 2b21 05be 938e a03e 8af3 033a 3176 93bc
000001f0: 5a09 0d3e f020 583e 319c 80bd c5d4 15bc

h2o.weight f4 [3, 128]
0.155498 -0.031924114 0.10860131 0.11008386 -0.07623841 0.09786738 0.10940573 0.06575202
0.1652056 0.05180571 0.0458686 -0.03401343 -0.025497947 0.05942951 -0.012253678 0.13192359
-0.062252358 -0.04443498 -0.1096611 0.14613694 0.05768003 0.085453115 0.27395403 0.004273114
-0.10485835 0.13035448 -0.031622708 0.2884005 -0.069568284 0.020537533 0.14946282 0.10480804
0.08091975 -0.044769574 0.040885318 -0.015600464 0.05083533 0.07407889 -0.06624369 -0.08088669
0.19084005 -0.07070584 0.13769692 -0.074961156 0.15730461 -0.13412233 0.16465786 -0.13047986
-0.002038308 0.053843036 0.040957164 0.061393205 0.12525028 0.30231693 -0.10837738 0.046559215
-0.052415393 0.12703584 0.076149024 0.004587093 0.057595402 0.04310011 0.12621398 -0.0009176664
-0.114685655 0.0054943482 -0.020811958 0.021690527 0.01409627 -0.16114537 0.030316664 0.055754047
0.067452334 0.048238695 -0.07005573 -0.06681441 -0.07658241 -0.06671388 -0.034047242 -0.019549748
-0.09150164 0.027075816 0.09589254 -0.14005116 0.18647802 -0.085182935 0.015010408 0.07537888
0.11765128 0.08685045 0.14836037 0.07292005 0.13867627 -0.07520545 -0.08976649 -0.028989082
0.09924537 -0.07570165 -0.09172891 0.15210861 0.13888913 -0.103952296 0.09970426 0.07713286
-0.025019621 0.04695834 -0.019361064 0.12245803 -0.005332274 0.009300196 0.11357727 0.11553885
0.040431052 0.057040296 0.012240527 -0.024018819 0.08755995 -0.17485571 -0.020506227 -0.06534635
-0.026573628 0.073431775 0.07233429 -0.048865784 0.07875658 -0.11297265 0.06370133 0.02609814
0.0024333927 -0.061074566 -0.077415444 0.021019312 -0.05168576 -0.023202268 -0.04239295 -0.07318551
-0.15477856 0.097863615 0.06609953 -0.033019904 0.07181114 0.01603055 -0.12649986 0.0026163117
-0.033201784 -0.008232 0.14560162 -0.06402629 0.049535412 -0.02140779 -0.07368157 -0.079006724
0.107820846 -0.012796361 0.042645212 -0.014867621 -0.110001825 -0.03459801 -0.001244877 0.05481134
0.12797363 0.07607227 -0.07133939 0.0873711 0.0064466964 0.053476695 0.12333563 0.1584523
-0.2880839 -0.025833244 -0.017175501 0.0666271 0.016584238 0.09830496 -0.17586273 0.10974634
-0.011578634 0.053624105 0.15049107 -0.02245764 0.048184086 -0.048672304 -0.05625669 -0.02105947
-0.0030210237 0.052819766 0.014167446 -0.009900532 -0.22383632 -0.087534845 -0.08025678 -0.12134825
-0.007041083 0.15887691 -0.09304786 -0.010486365 -0.00036550566 0.22636658 -0.031082686 -0.10911838
-0.0275867 -0.06776836 -0.058133528 0.10364933 -0.04356543 0.13313673 -0.030182377 0.08010711
-0.048622735 -0.041143257 0.040270433 0.19115454 -0.17254482 -0.06574316 -0.019944007 0.0358892
0.10196254 -0.04289459 -0.11678322 0.0077377367 -0.041496642 0.06978197 -0.043724515 -0.015865669
-0.08992998 0.06388926 -0.032419685 0.0035872706 0.021588579 0.041481547 -0.057755344 0.032706577
-0.024717994 0.04122908 0.06349166 0.035544306 -0.0037211739 0.016594717 -0.15467614 -0.2000646
0.08034684 0.0482481 0.079255015 0.09284235 -0.07762411 0.11111728 -0.02941815 -0.10064225
0.1644564 -0.21837917 -0.08160912 0.072617665 -0.006184316 -0.08387825 -0.0682428 -0.046802405
00000000: de3a 1f3e dcc2 02bd 5d6a de3d a673 e13d
00000010: e222 9cbd b16e c83d 1d10 e03d ffa8 863d
00000020: a82b 293e 3932 543d b7e0 3b3d ab51 0bbd
00000030: 12e1 d0bc 5c6c 733d a7c3 48bc fa16 073e
00000040: 54fc 7ebd 7401 36bd 0096 e0bd eca4 153e
00000050: e541 6c3d 0b02 af3d b443 8c3e 7a05 8c3b
00000060: f9bf d6bd a57b 053e d086 01bd 3ba9 933e
00000070: d179 8ebd 543e a83c c80c 193e 99a5 d63d
00000080: 41b9 a53d 4d60 37bd 5d77 273d 1799 7fbc
00000090: b538 503d acb6 973d c6aa 87bd eca7 a5bd
000000a0: 936b 433e 39ce 90bd 6c00 0d3e 3c85 99bd
000000b0: 7614 213e 5d57 09be 129c 283e 839c 05be
000000c0: 2295 05bb 848a 5c3d b3c2 273d 7177 7b3d
000000d0: 9c41 003e 49c9 9a3e f6f4 ddbd e0b4 3e3d
000000e0: 86b1 56bd af15 023e 05f4 9b3d 534f 963b
000000f0: 28e9 6b3d be89 303d 3d3e 013e 8d8f 70ba
00000100: 50e0 eabd ef09 b43b d77d aabc 55b0 b13c
00000110: 0bf4 663c 4b03 25be a75a f83c 5b5e 643d
00000120: 7324 8a3d f095 453d 6179 8fbd fed5 88bd
00000130: 3dd7 9cbd 49a1 88bd 1f75 0bbd cb26 a0bc
00000140: 3665 bbbd 1ace dd3c 4f63 c43d 9269 0fbe
00000150: 18f4 3e3e 6474 aebd 37ee 753c 3e60 9a3d
00000160: 27f3 f03d a6de b13d c8eb 173e 1b57 953d
00000170: 2701 0e3e 5105 9abd 7ed7 b7bd 837a edbc
00000180: 2841 cb3d 7709 9bbd 5edc bbbd 5cc2 1b3e
00000190: f438 0e3e f1e4 d4bd bf31 cc3d d5f7 9d3d
000001a0: f3f5 ccbc 6357 403d 189b 9ebc 47cb fa3d
000001b0: 5bba aebb d95f 183c 339b e83d a29f ec3d
000001c0: 089b 253d 16a3 693d 7e8c 483c 1dc3 c4bc
000001d0: a252 b33d 600d 33be adfc a7bc 4fd4 85bd
000001e0: f0b0 d9bc 6663 963d 0024 943d 7d27 48bd
000001f0: 214b a13d 345e e7bd d875 823d c4cb d53c
00000200: 8e79 1f3b 5329 7abd fd8b 9ebd b130 ac3c
00000210: 73b4 53bd af12 bebc 3ba4 2dbd 49e2 95bd
00000220: 457e 1ebe b86c c83d 315f 873d e13f 07bd
00000230: b811 933d 8052 833c 2e89 01be 6d76 2b3b
00000240: 98fe 07bd 83df 06bc 9718 153e 3720 83bd
00000250: a5e5 4a3d 645f afbc 5de6 96bd 47ce a1bd
00000260: 2dd1 dc3d d4a7 51bc bfac 2e3d 5297 73bc
00000270: a348 e1bd a5b6 0dbd 242b a3ba db81 603d
00000280: 850b 033e c7cb 9b3d 631a 92bd 9fef b23d
00000290: cf3e d33b 610a 5b3d 6497 fc3d 5241 223e
000002a0: bc7f 93be 3da0 d3bc a3b3 8cbc ca73 883d
000002b0: abdb 873c 1c54 c93d 5c15 34be b0c2 e03d
000002c0: 50b4 3dbc f3a4 5b3d 551a 1a3e 16f9 b7bc
000002d0: ad5c 453d 9c5c 47bd 6a6d 66bd e984 acbc
000002e0: 5efc 45bb 8a59 583d 931e 683c d735 22bc
000002f0: 5935 65be 7845 b3bd ab5d a4bd 6e85 f8bd
00000300: e3b8 e6bb a1b0 223e e08f bebd 01cf 2bbc
00000310: 57a1 bfb9 a4cc 673e 1ea1 febc 7579 dfbd
00000320: 81fd e1bc 23ca 8abd 6c1d 6ebd 1a46 d43d
00000330: aa71 32bd ff54 083e 0841 f7bc 320f a43d
00000340: a228 47bd d585 28bd 9cf2 243d 04be 433e
00000350: 97af 30be 5aa4 86bd 9d61 a3bc 8e00 133d
00000360: bcd1 d03d 3db2 2fbd 0a2c efbd d78c fd3b
00000370: 62f8 29bd d9e9 8e3d 7a18 33bd b8f8 81bc
00000380: 362d b8bd 5fd8 823d 81ca 04bd 6a18 6b3b
00000390: 88da b03c 8ee8 293d de90 6cbd 55f7 053d
000003a0: 647d cabc d3df 283d ea07 823d e896 113d
000003b0: f0de 73bb a5f1 873c 6c63 1ebe bcdd 4cbe
000003c0: e28c a43d cd9f 453d 7450 a23d 2124 be3d
000003d0: 64f9 9ebd 7591 e33d 55fe f0bc 861d cebd
000003e0: 4267 283e ca9e 5fbe af22 a7bd 92b8 943d
000003f0: cda5 cabb 5cc8 abbd e2c2 8bbd e1b3 3fbd

h2o.bias f4 [3]
0.05181936 -0.30422014 0.06595588
00000000: 8a40 543d bec2 9bbe e013 873d
